…
Downloading torchsummary-1.5.1-py3-none-any.whl (2.8 kB)
Installing collected packages: torchsummary
Successfully installed torchsummary-1.5.1
c:\Users\chavv\anaconda\envs\huggingface-torch\lib\site-packages\transformers\models\vit\modeling_vit.py:261: UserWarning: 1Torch was not compiled with flash attention. (Triggered internally at C:\cb\pytorch_1000000000000\work\aten\src\ATen\native\transformers\cuda\sdp_utils.cpp:555.)
  context_layer = torch.nn.functional.scaled_dot_product_attention(
ViTForImageClassification(
  (vit): ViTModel(
    (embeddings): ViTEmbeddings(
      (patch_embeddings): ViTPatchEmbeddings(
        (projection): Conv2d(3, 768, kernel_size=(16, 16), stride=(16, 16))
      )
      (dropout): Dropout(p=0.0, inplace=False)
    )
    (encoder): ViTEncoder(
      (layer): ModuleList(
        (0-11): 12 x ViTLayer(
          (attention): ViTSdpaAttention(
            (attention): ViTSdpaSelfAttention(
              (query): Linear(in_features=768, out_features=768, bias=True)
              (key): Linear(in_features=768, out_features=768, bias=True)
              (value): Linear(in_features=768, out_features=768, bias=True)
              (dropout): Dropout(p=0.0, inplace=False)
            )
            (output): ViTSelfOutput(
              (dense): Linear(in_features=768, out_features=768, bias=True)
              (dropout): Dropout(p=0.0, inplace=False)
            )
          )
          (intermediate): ViTIntermediate(
            (dense): Linear(in_features=768, out_features=3072, bias=True)
            (intermediate_act_fn): GELUActivation()
          )
          (output): ViTOutput(
            (dense): Linear(in_features=3072, out_features=768, bias=True)
            (dropout): Dropout(p=0.0, inplace=False)
          )
          (layernorm_before): LayerNorm((768,), eps=1e-12, elementwise_affine=True)
          (layernorm_after): LayerNorm((768,), eps=1e-12, elementwise_affine=True)
        )
      )
    )
    (layernorm): LayerNorm((768,), eps=1e-12, elementwise_affine=True)
  )
  (classifier): Linear(in_features=768, out_features=3, bias=True)
)
Collecting torchinfo
  Downloading torchinfo-1.8.0-py3-none-any.whl.metadata (21 kB)
Downloading torchinfo-1.8.0-py3-none-any.whl (23 kB)
Installing collected packages: torchinfo
Successfully installed torchinfo-1.8.0
Layer: vit.embeddings.cls_token | Size: torch.Size([1, 1, 768]) | Requires Grad: True
Layer: vit.embeddings.position_embeddings | Size: torch.Size([1, 197, 768]) | Requires Grad: True
…
